…
tivation='relu'), MaxPooling2D(pool_size=(2, 2), strides=(2, 2)), # 全连接层 Flatten(), Dense(4096, activation='relu'), Dense(4096, activation='relu'), Dense(1000, activation='softmax') # 最后要做一个softmax，输出概率归一化 ]) return modelif __name__ == '__main__': # 主函数，调用 model = generate_vgg16() model.summary() 输出123456789101112131415161718192021222324252627282930313233343536373839404142434445464748495051Using TensorFlow backend._________________________________________________________________Layer (type) Output Shape Param # =================================================================conv2d_1 (Conv2D) (None, 224, 224, 64) 1792 _________________________________________________________________conv2d_2 (Conv2D) (None, 224, 224, 64) 36928 _________________________________________________________________max_pooling2d_1 (MaxPooling2 (None, 112, 112, 64) 0 _________________________________________________________________conv2d_3 (Conv2D) (None, 112, 112, 128) 73856 _________________________________________________________________conv2d_4 (Conv2D) (None, 112, 112, 128) 147584 _________________________________________________________________max_pooling2d_2 (MaxPooling2 (None, 56, 56, 128) 0 _________________________________________________________________conv2d_5 (Conv2D) (None, 56, 56, 256) 295168 _________________________________________________________________conv2d_6 (Conv2D) (None, 56, 56, 256) 590080 _________________________________________________________________conv2d_7 (Conv2D) (None, 56, 56, 256) 590080 _________________________________________________________________max_pooling2d_3 (MaxPooling2 (None, 28, 28, 256) 0 _________________________________________________________________conv2d_8 (Conv2D) (None, 28, 28, 512) 1180160 _________________________________________________________________conv2d_9 (Conv2D) (None, 28, 28, 512) 2359808 _________________________________________________________________conv2d_10 (Conv2D) (None, 28, 28, 512) 2359808 _________________________________________________________________max_pooling2d_4 (MaxPooling2 (None, 14, 14, 512) 0 _________________________________________________________________conv2d_11 (Conv2D) (None, 14, 14, 512) 2359808 _________________________________________________________________conv2d_12 (Conv2D) (None, 14, 14, 512) 2359808 _________________________________________________________________conv2d_13 (Conv2D) (None, 14, 14, 512) 2359808 _________________________________________________________________max_pooling2d_5 (MaxPooling2 (None, 7, 7, 512) 0 _________________________________________________________________flatten_1 (Flatten) (None, 25088) 0 _________________________________________________________________dense_1 (Dense) (None, 4096) 102764544 _________________________________________________________________dense_2 (Dense) (None, 4096) 16781312 _________________________________________________________________dense_3 (Dense) (None, 1000) 4097000 =================================================================Total params: 138,357,544Trainable params: 138,357,544Non-trainable params: 0 可以看到参数是138,357,544个，基本可以认为构建无误。 VGG19构建代码不妨再模拟一个常用的VGG19。 VGG19只是在第3、4、5块（Block）各增加一个卷积层。 1234567891011121314151617181920212223242526272829303132333435363738394041424344454647484950from keras.models import Sequentialfrom keras.layers import Dense, Flattenf
…
lu'), MaxPooling2D(pool_size=(2, 2), strides=(2, 2)), # 全连接层 Flatten(), Dense(4096, activation='relu'), Dense(4096, activation='relu'), Dense(1000, activation='softmax') # 最后要做一个softmax，输出概率归一化 ]) return modelif __name__ == '__main__': # 主函数，调用 model = generate_vgg16() model.summary() 输出123456789101112131415161718192021222324252627282930313233343536373839404142434445464748495051525354555657Using TensorFlow backend._________________________________________________________________Layer (type) Output Shape Param # =================================================================conv2d_1 (Conv2D) (None, 224, 224, 64) 1792 _________________________________________________________________conv2d_2 (Conv2D) (None, 224, 224, 64) 36928 _________________________________________________________________max_pooling2d_1 (MaxPooling2 (None, 112, 112, 64) 0 _________________________________________________________________conv2d_3 (Conv2D) (None, 112, 112, 128) 73856 _________________________________________________________________conv2d_4 (Conv2D) (None, 112, 112, 128) 147584 _________________________________________________________________max_pooling2d_2 (MaxPooling2 (None, 56, 56, 128) 0 _________________________________________________________________conv2d_5 (Conv2D) (None, 56, 56, 256) 295168 _________________________________________________________________conv2d_6 (Conv2D) (None, 56, 56, 256) 590080 _________________________________________________________________conv2d_7 (Conv2D) (None, 56, 56, 256) 590080 _________________________________________________________________conv2d_8 (Conv2D) (None, 56, 56, 256) 590080 _________________________________________________________________max_pooling2d_3 (MaxPooling2 (None, 28, 28, 256) 0 _________________________________________________________________conv2d_9 (Conv2D) (None, 28, 28, 512) 1180160 _________________________________________________________________conv2d_10 (Conv2D) (None, 28, 28, 512) 2359808 _________________________________________________________________conv2d_11 (Conv2D) (None, 28, 28, 512) 2359808 _________________________________________________________________conv2d_12 (Conv2D) (None, 28, 28, 512) 2359808 _________________________________________________________________max_pooling2d_4 (MaxPooling2 (None, 14, 14, 512) 0 _________________________________________________________________conv2d_13 (Conv2D) (None, 14, 14, 512) 2359808 _________________________________________________________________conv2d_14 (Conv2D) (None, 14, 14, 512) 2359808 _________________________________________________________________conv2d_15 (Conv2D) (None, 14, 14, 512) 2359808 _________________________________________________________________conv2d_16 (Conv2D) (None, 14, 14, 512) 2359808 _________________________________________________________________max_pooling2d_5 (MaxPooling2 (None, 7, 7, 512) 0 _________________________________________________________________flatten_1 (Flatten) (None, 25088) 0 _________________________________________________________________dense_1 (Dense) (None, 4096) 102764544 _________________________________________________________________dense_2 (Dense) (None, 4096) 16781312 _________________________________________________________________dense_3 (Dense) (None, 1000) 4097000 =================================================================Total params: 143,667,240Trainable params: 143,667,240Non-trainable params: 0 QA 提交作业时，所有文件都需要上传吗？还是只需要上传修改后的.py文件？ 未回答。（Remain） 是的。 代码中卷积核只指定了窗口的大小3*3，那么卷积核的过滤函数是怎么确定的呢？ 参数通过通过反向传播训练的。Check！ 图像是RGB三位（层）的，为什么不是指定3个卷积核形成过滤器（滑动窗口），而是64、128……？步长是keras自行确定的吗？指定的卷积核个数是在图像上默认均匀分布吗？而且64个3*3窗口根本没法覆盖224x224的图像啊。。orz 64代表卷积核的个数，步长自己设，keras默认步
…
