…
<h4 id="输出"><a href="#输出" class="headerlink" title="输出"></a>输出</h4><figure class="highlight plain"><table><tr><td class="code"><pre><span class="line">Using TensorFlow backend.</span><br><span class="line">_________________________________________________________________</span><br><span class="line">Layer (type)                 Output Shape              Param #   </span><br><span class="line">&#x3D;&#x3D;&#x3D;&#x3D;&#x3D;&#x3D;&#x3D;&#x3D;&#x3D;&#x3D;&#x3D;&#x3D;&#x3D;&#x3D;&#x3D;&#x3D;&#x3D;&#x3D;&#x3D;&#x3D;&#x3D;&#x3D;&#x3D;&#x3D;&#x3D;&#x3D;&#x3D;&#x3D;&#x3D;&#x3D;&#x3D;&#x3D;&#x3D;&#x3D;&#x3D;&#x3D;&#x3D;&#x3D;&#x3D;&#x3D;&#x3D;&#x3D;&#x3D;&#x3D;&#x3D;&#x3D;&#x3D;&#x3D;&#x3D;&#x3D;&#x3D;&#x3D;&#x3D;&#x3D;&#x3D;&#x3D;&#x3D;&#x3D;&#x3D;&#x3D;&#x3D;&#x3D;&#x3D;&#x3D;&#x3D;</span><br><span class="line">conv2d_1 (Conv2D)            (None, 224, 224, 64)      1792      </span><br><span class="line">_________________________________________________________________</span><br><span class="line">conv2d_2 (Conv2D)            (None, 224, 224, 64)      36928     </span><br><span class="line">_________________________________________________________________</span><br><span class="line">max_pooling2d_1 (MaxPooling2 (None, 112, 112, 64)      0         </span><br><span class="line">_________________________________________________________________</span><br><span class="line">conv2d_3 (Conv2D)            (None, 112, 112, 128)     73856     </span><br><span class="line">_________________________________________________________________</span><br><span class="line">conv2d_4 (Conv2D)            (None, 112, 112, 128)     147584    </span><br><span class="line">_________________________________________________________________</span><br><span class="line">max_pooling2d_2 (MaxPooling2 (None, 56, 56, 128)       0         </span><br><span class="line">_________________________________________________________________</span><br><span class="line">conv2d_5 (Conv2D)            (None, 56, 56, 256)       295168    </span><br><span class="line">_________________________________________________________________</span><br><span class="line">conv2d_6 (Conv2D)            (None, 56, 56, 256)       590080    </span><br><span class="line">_________________________________________________________________</span><br><span class="line">conv2d_7 (Conv2D)            (None, 56, 56, 256)       590080    </span><br><span class="line">_________________________________________________________________</span><br><span class="line">max_pooling2d_3 (MaxPooling2 (None, 28, 28, 256)       0         </span><br><span class="line">_________________________________________________________________</span><br><span class="line">conv2d_8 (Conv2D)            (None, 28, 28, 512)       1180160   </span><br><span class="line">_________________________________________________________________</span><br><span class="line">conv2d_9 (Conv2D)            (None, 28, 28, 512)       2359808   </span><br><span class="line">_________________________________________________________________</span><br><span class="line">conv2d_10 (Conv2D)           (None, 28, 28, 512)       2359808   </span><br><span class="line">_________________________________________________________________</span><br><span class="line">max_pooling2d_4 (MaxPooling2 (None, 14, 14, 512)       0         </span><br><span class="line">_________________________________________________________________</span><br><span class="line">conv2d_11 (Conv2D)           (None, 14, 14, 512)       2359808   </span><br><span class="line">_________________________________________________________________</span><br><span class="line">conv2d_12 (Conv2D)           (None, 14, 14, 512)       2359808   </span><br><span class="line">_________________________________________________________________</span><br><span class="line">conv2d_13 (Conv2D)           (None, 14, 14, 512)       2359808   </span><br><span class="line">_________________________________________________________________</span><br><span class="line">max_pooling2d_5 (MaxPooling2 (None, 7, 7, 512)         0         </span><br><span class="line">_________________________________________________________________</span><br><span class="line">flatten_1 (Flatten)          (None, 25088)             0         </span><br><span class="line">_________________________________________________________________</span><br><span class="line">dense_1 (Dense)              (None, 4096)              102764544 </span><br><span class="line">_________________________________________________________________</span><br><span class="line">dense_2 (Dense)              (None, 4096)              16781312  </span><br><span class="line">_________________________________________________________________</span><br><span class="line">dense_3 (Dense)              (None, 1000)              4097000   </span><br><span class="line">&#x3D;&#x3D;&#x3D;&#x3D;&#x3D;&#x3D;&#x3D;&#x3D;&#x3D;&#x3D;&#x3D;&#x3D;&#x3D;&#x3D;&#x3D;&#x3D;&#x3D;&#x3D;&#x3D;&#x3D;&#x3D;&#x3D;&#x3D;&#x3D;&#x3D;&#x3D;&#x3D;&#x3D;&#x3D;&#x3D;&#x3D;&#x3D;&#x3D;&#x3D;&#x3D;&#x3D;&#x3D;&#x3D;&#x3D;&#x3D;&#x3D;&#x3D;&#x3D;&#x3D;&#x3D;&#x3D;&#x3D;&#x3D;&#x3D;&#x3D;&#x3D;&#x3D;&#x3D;&#x3D;&#x3D;&#x3D;&#x3D;&#x3D;&#x3D;&#x3D;&#x3D;&#x3D;&#x3D;&#x3D;&#x3D;</span><br><span class="line">Total params: 138,357,544</span><br><span class="line">Trainable params: 138,357,544</span><br><span class="line">Non-trainable params: 0</span><br></pre></td></tr></table></figure>
…
<h4 id="输出-1"><a href="#输出-1" class="headerlink" title="输出"></a>输出</h4><figure class="highlight plain"><table><tr><td class="code"><pre><span class="line">Using TensorFlow backend.</span><br><span class="line">_________________________________________________________________</span><br><span class="line">Layer (type)                 Output Shape              Param #   </span><br><span class="line">&#x3D;&#x3D;&#x3D;&#x3D;&#x3D;&#x3D;&#x3D;&#x3D;&#x3D;&#x3D;&#x3D;&#x3D;&#x3D;&#x3D;&#x3D;&#x3D;&#x3D;&#x3D;&#x3D;&#x3D;&#x3D;&#x3D;&#x3D;&#x3D;&#x3D;&#x3D;&#x3D;&#x3D;&#x3D;&#x3D;&#x3D;&#x3D;&#x3D;&#x3D;&#x3D;&#x3D;&#x3D;&#x3D;&#x3D;&#x3D;&#x3D;&#x3D;&#x3D;&#x3D;&#x3D;&#x3D;&#x3D;&#x3D;&#x3D;&#x3D;&#x3D;&#x3D;&#x3D;&#x3D;&#x3D;&#x3D;&#x3D;&#x3D;&#x3D;&#x3D;&#x3D;&#x3D;&#x3D;&#x3D;&#x3D;</span><br><span class="line">conv2d_1 (Conv2D)            (None, 224, 224, 64)      1792      </span><br><span class="line">_________________________________________________________________</span><br><span class="line">conv2d_2 (Conv2D)            (None, 224, 224, 64)      36928     </span><br><span class="line">_________________________________________________________________</span><br><span class="line">max_pooling2d_1 (MaxPooling2 (None, 112, 112, 64)      0         </span><br><span class="line">_________________________________________________________________</span><br><span class="line">conv2d_3 (Conv2D)            (None, 112, 112, 128)     73856     </span><br><span class="line">_________________________________________________________________</span><br><span class="line">conv2d_4 (Conv2D)            (None, 112, 112, 128)     147584    </span><br><span class="line">_________________________________________________________________</span><br><span class="line">max_pooling2d_2 (MaxPooling2 (None, 56, 56, 128)       0         </span><br><span class="line">_________________________________________________________________</span><br><span class="line">conv2d_5 (Conv2D)            (None, 56, 56, 256)       295168    </span><br><span class="line">_________________________________________________________________</span><br><span class="line">conv2d_6 (Conv2D)            (None, 56, 56, 256)       590080    </span><br><span class="line">_________________________________________________________________</span><br><span class="line">conv2d_7 (Conv2D)            (None, 56, 56, 256)       590080    </span><br><span class="line">_________________________________________________________________</span><br><span class="line">conv2d_8 (Conv2D)            (None, 56, 56, 256)       590080    </span><br><span class="line">_________________________________________________________________</span><br><span class="line">max_pooling2d_3 (MaxPooling2 (None, 28, 28, 256)       0         </span><br><span class="line">_________________________________________________________________</span><br><span class="line">conv2d_9 (Conv2D)            (None, 28, 28, 512)       1180160   </span><br><span class="line">_________________________________________________________________</span><br><span class="line">conv2d_10 (Conv2D)           (None, 28, 28, 512)       2359808   </span><br><span class="line">_________________________________________________________________</span><br><span class="line">conv2d_11 (Conv2D)           (None, 28, 28, 512)       2359808   </span><br><span class="line">_________________________________________________________________</span><br><span class="line">conv2d_12 (Conv2D)           (None, 28, 28, 512)       2359808   </span><br><span class="line">_________________________________________________________________</span><br><span class="line">max_pooling2d_4 (MaxPooling2 (None, 14, 14, 512)       0         </span><br><span class="line">_________________________________________________________________</span><br><span class="line">conv2d_13 (Conv2D)           (None, 14, 14, 512)       2359808   </span><br><span class="line">_________________________________________________________________</span><br><span class="line">conv2d_14 (Conv2D)           (None, 14, 14, 512)       2359808   </span><br><span class="line">_________________________________________________________________</span><br><span class="line">conv2d_15 (Conv2D)           (None, 14, 14, 512)       2359808   </span><br><span class="line">_________________________________________________________________</span><br><span class="line">conv2d_16 (Conv2D)           (None, 14, 14, 512)       2359808   </span><br><span class="line">_________________________________________________________________</span><br><span class="line">max_pooling2d_5 (MaxPooling2 (None, 7, 7, 512)         0         </span><br><span class="line">_________________________________________________________________</span><br><span class="line">flatten_1 (Flatten)          (None, 25088)             0         </span><br><span class="line">_________________________________________________________________</span><br><span class="line">dense_1 (Dense)              (None, 4096)              102764544 </span><br><span class="line">_________________________________________________________________</span><br><span class="line">dense_2 (Dense)              (None, 4096)              16781312  </span><br><span class="line">_________________________________________________________________</span><br><span class="line">dense_3 (Dense)              (None, 1000)              4097000   </span><br><span class="line">&#x3D;&#x3D;&#x3D;&#x3D;&#x3D;&#x3D;&#x3D;&#x3D;&#x3D;&#x3D;&#x3D;&#x3D;&#x3D;&#x3D;&#x3D;&#x3D;&#x3D;&#x3D;&#x3D;&#x3D;&#x3D;&#x3D;&#x3D;&#x3D;&#x3D;&#x3D;&#x3D;&#x3D;&#x3D;&#x3D;&#x3D;&#x3D;&#x3D;&#x3D;&#x3D;&#x3D;&#x3D;&#x3D;&#x3D;&#x3D;&#x3D;&#x3D;&#x3D;&#x3D;&#x3D;&#x3D;&#x3D;&#x3D;&#x3D;&#x3D;&#x3D;&#x3D;&#x3D;&#x3D;&#x3D;&#x3D;&#x3D;&#x3D;&#x3D;&#x3D;&#x3D;&#x3D;&#x3D;&#x3D;&#x3D;</span><br><span class="line">Total params: 143,667,240</span><br><span class="line">Trainable params: 143,667,240</span><br><span class="line">Non-trainable params: 0</span><br></pre></td></tr></table></figure>
…
